app/src/main/assets/reaction_model.tflite (tflite, 2992 bytes, 6 tensors)

arith.constant f4 [5, 8]
-0.2988922 0.010254275 -1.3784326 3.2786615 0.2683671 0.22959925 -0.50459194 -0.7930297
-0.67870086 0.4152511 -0.44498134 1.4716825 -0.03738737 -0.17742942 0.15387082 -0.20125762
0.6413995 0.30885026 -0.25274912 -0.20893961 -0.36546168 0.6520819 0.4999385 0.39511642
0.5839884 0.11776988 0.23023432 -2.2162313 0.60715926 0.33801055 -0.43217164 0.64859384
-0.28589463 -0.038327932 0.7787767 -4.923253 0.64162886 0.65552217 -0.5854375 0.70059514
00000000: 6608 99be 8c01 283c 7b70 b0bf 97d5 5140
00000010: 6a67 893e 111c 6b3e f02c 01bf ff03 4bbf
00000020: 57bf 2dbf cb9b d43e 98d4 e3be 1860 bc3f
00000030: 8023 19bd 0fb0 35be 5090 1d3e 7a16 4ebe
00000040: c232 243f 9f21 9e3e 5568 81be 44f4 55be
00000050: cb1d bbbe d7ee 263f f0f7 ff3e b34c ca3e
00000060: 4480 153f 5631 f13d 8cc2 6b3e bcd6 0dc0
00000070: ca6e 1b3f b80f ad3e 9a45 ddbe 3f0a 263f
00000080: c860 92be c0fd 1cbd e95d 473f 4a8b 9dc0
00000090: ca41 243f 4dd0 273f 3bdf 15bf 345a 333f

arith.constant1 f4 [8, 16]
-0.06137979 0.28081834 0.47076344 -0.13726985 0.26793325 0.05292225 -0.13243544 0.32371938
-0.04595387 0.39168942 0.14541423 -0.35745 -0.459347 0.08809435 0.2771654 0.28972375
-0.24375355 0.14164329 -0.36488688 -0.3477285 -0.23703958 -0.13692331 0.27126616 0.22014236
0.05523801 0.37159562 0.18742526 0.041841984 0.39889354 -0.45916277 0.47252572 -0.4770651
0.06442714 -0.34545434 -0.4366361 0.014935374 0.60136425 0.22143054 -0.11835802 0.25377584
0.4761907 -0.052298784 -0.4347569 0.01979971 0.3718032 0.3901599 -0.22865653 -0.2842332
0.32380712 0.03330934 -0.14494741 0.025710225 -1.2020857 0.27312672 -0.19217892 -0.17270732
0.20623827 0.18704176 0.277502 -0.20768106 0.21351847 -0.16671754 -0.082298875 0.20914543
0.36980224 0.12212145 0.46969533 -0.15148461 -0.09584057 0.43132758 0.1720897 0.0765928
0.3800044 0.20197403 -0.38287866 -0.21891487 -0.053292513 0.32516003 0.19544971 -0.10384178
0.40030682 0.044982195 -0.44707847 0.17115104 -0.06843461 -0.26162076 0.43665513 -0.45460093
0.14656746 -0.16233861 -0.3937346 -0.47256982 0.41078302 -0.5033579 0.4582957 0.25242078
0.12074852 0.4752139 0.3887577 -0.40527666 -0.28828526 -0.25007188 -0.42098963 -0.1398871
-0.09874189 0.02241826 -0.4755727 -0.3560685 0.27894676 -0.0860548 0.24695563 -0.40722764
0.2713015 0.42829597 -0.016182065 0.16197634 1.0152445 -0.20101678 0.35456538 0.10266507
-0.37780237 0.2999041 0.07191228 -0.20027363 0.23742816 -0.41692153 -0.42896652 0.19716382
00000000: 6069 7bbd 6cc7 8f3e e807 f13e 7890 0cbe
00000010: 8c2e 893e 00c5 583d 289d 07be 8cbe a53e
00000020: 203a 3cbd 848b c83e 78e7 143e b003 b7be
00000030: 882f ebbe d06a b43d a0e8 8d3e ac56 943e
00000040: 889a 79be f00a 113e 74d2 babe 7809 b2be
00000050: 81ba 72be a035 0cbe 66e3 8a3e 006d 613e
00000060: 4041 623d c841 be3e 68ec 3f3e 8062 2b3d
00000070: c63b cc3e 6217 ebbe e4ee f13e e041 f4be
00000080: 60f2 833d 64df b0be c48e dfbe 80b3 743c
00000090: 02f3 193f b0be 623e b165 f2bd e8ee 813e
000000a0: 44cf f33e 4037 56bd 7598 debe 0033 a23c
000000b0: fd5c be3e 0ac3 c73e f024 6abe 0487 91be
000000c0: 0cca a53e 606f 083d 186d 14be 409e d23c
000000d0: f2dd 99bf 44d7 8b3e 8dca 44be 30da 30be
000000e0: 2030 533e e087 3f3e be14 8e3e 58aa 54be
000000f0: 96a4 5a3e 01b8 2abe 508c a8bd 382a 563e
00000100: b856 bd3e d01a fa3d e87b f03e c81e 1bbe
00000110: 1048 c4bd f8d6 dc3e 4838 303e b0dc 9c3d
00000120: f08f c23e 48d2 4e3e ac08 c4be 382b 60be
00000130: 4049 5abd 607b a63e f823 483e 00ab d4bd
00000140: 04f5 cc3e 403f 383d 78e7 e4be 3842 2f3e
00000150: 7227 8cbd 28f3 85be 4391 df3e 74c1 e8be
00000160: c815 163e 183c 26be 9597 c9be acf4 f1be
00000170: 2752 d23e 10dc 00bf bca5 ea3e 4c3d 813e
00000180: 004b f73d 3c4f f33e 400b c73e 6c80 cfbe
00000190: 209a 93be 6c09 80be f48b d7be 903e 0fbe
000001a0: 3039 cabd 80a6 b73c 447e f3be 9c4e b6be
000001b0: 1cd2 8e3e 803d b0bd f0e1 7c3e 2480 d0be
000001c0: 08e8 8a3e 9c49 db3e 4090 84bc 20dd 253e
000001d0: 88f3 813f 58d7 4dbe 9889 b53e 1042 d23d
000001e0: 506f c1be 088d 993e bf46 933d 8814 4dbe
000001f0: 5e20 733e bd76 d5be 80a1 dbbe 50e5 493e

arith.constant2 f4 [8]
0.0 1.9267193 -3.502603 7.3353887 0.0 -0.0076654605 0.0 -5.468996
00000000: 0000 0000 bd9e f63f a62a 60c0 81bb ea40
00000010: 0000 0000 8b2e fbbb 0000 0000 0402 afc0

sequential_3_1/dense_10_1/BiasAdd/ReadVariableOp f4 [5]
4.595633 2.76869 0.37828356 -1.388149 -4.1596684
00000000: 6d0f 9340 3832 3140 62ae c13e deae b1bf
00000010: 011c 85c0

sequential_3_1/dense_8_1/BiasAdd/ReadVariableOp f4 [16]
0.0 0.0 0.0 0.0 -8.248345 0.0 -3.5173542 0.0
0.0 0.0 5.001263 0.0 2.233853 -2.7515402 0.0 0.0
00000000: 0000 0000 0000 0000 0000 0000 0000 0000
00000010: 39f9 03c1 0000 0000 551c 61c0 0000 0000
00000020: 0000 0000 0000 0000 590a a040 0000 0000
00000030: 73f7 0e40 3c19 30c0 0000 0000 0000 0000

sequential_3_1/dense_8_1/MatMul f4 [16, 1]
-0.18956155 -0.54967535 -0.5124249 -0.24552774 0.0890846 -0.016109228 0.09978002 -0.35534203
-0.061246336 -0.25954732 0.31539932 -0.24667746 0.1909313 0.19853033 -0.45242685 -0.5363462
00000000: 6c1c 42be 86b7 0cbf 472e 03bf a06b 7bbe
00000010: fd71 b63d 80f7 83bc 7859 cc3d 64ef b5be
00000020: 70dd 7abd 63e3 84be 057c a13e 0499 7cbe
00000030: 7f83 433e 894b 4b3e 7ea4 e7be fc4d 09bf
